…
特征提取和文本生成，实现端到端的文本识别任务 TrOCR模型的关键创新点包括以下几个方面： 基于Transformer的架构：TrOCR采用了Transformer架构作为其基础模型，其中包括编码器和解码器。编码器用于提取图像特征，解码器用于生成识别的文本序列 预训练模型的应用：TrOCR利用预训练的图像和文本模型作为编码器和解码器，如ViT、RoBERTa等。这些预训练模型能够提供丰富的视觉和语言表示能力，有助于提高OCR的准确性 大规模合成数据集：为了进行预训练和微调，TrOCR使用了大规模的合成数据集，包括数百万张打印文本图像和手写文本图像。这样可以增加模型在不同领域和样式的文本上的泛化能力 实验证明，TrOCR模型在打印文本、手写文本和场景文本识别任务上取得了优异的性能表现，超过了当前的state-of-the-art模型。该论文的贡献在于将Transformer应用于OCR任务，并且通过预训练模型的利用提高了OCR的准确性和泛化能力 架构： model(VisionEncoderDecoderModel) = encoder(DeiT)+decoder(TrOCRForCausalLM) DeiTModel( (embeddings): DeiTEmbeddings( (patch_embeddings): DeiTPatchEmbeddings( (projection): Conv2d(3, 384, kernel_size=(16, 16), stride=(16, 16)) ) (dropout): Dropout(p=0.0, inplace=False) ) (encoder): DeiTEncoder( (layer): ModuleList( (0): DeiTLayer( (attention): DeiTAttention( (attention): DeiTSelfAttention( (query): Linear(in_features=384, out_features=384, bias=True) (key): Linear(in_features=384, out_features=384, bias=True) (value): Linear(in_features=384, out_features=384, bias=True) (dropout): Dropout(p=0.0, inplace=False) ) (output): DeiTSelfOutput( (dense): Linear(in_features=384, out_features=384, bias=True) (dropout): Dropout(p=0.0, inplace=False) ) ) (intermediate): DeiTIntermediate( (dense): Linear(in_features=384, out_features=1536, bias=True) (intermediate_act_fn): GELUActivation() ) (output): DeiTOutput( (dense): Linear(in_features=1536, out_features=384, bias=True) (dropout): Dropout(p=0.0, inplace=False) ) (layernorm_before): LayerNorm((384,), eps=1e-12, elementwise_affine=True) (layernorm_after): LayerNorm((384,), eps=1e-12, elementwise_affine=True) ) * 12 ) ) (layernorm): LayerNorm((384,), eps=1e-12, elementwise_affine=True) (pooler): DeiTPooler( (dense): Linear(in_features=384, out_features=384, bias=True) (activation): Tanh() ) ) # 通过线性层将编码器和解码器连接到了一起 enc_to_dec_proj = nn.Linear(self.encoder.config.hidden_size, self.decoder.config.hidden_size) TrOCRForCausalLM( (model): TrOCRDecoderWrapper( (decoder): TrOCRDecoder( (embed_tokens): Embedding(11318, 256, padding_idx=1) (embed_positions): TrOCRLearnedPositionalEmbedding(514, 256) (layernorm_embedding): LayerNorm((256,), eps=1e-05, elementwise_affine=True) (layers): ModuleList( (0): TrOCRDecoderLayer( (self_attn): TrOCRAttention( (k_proj): Linear(in_features=256, out_features=256, bias=True) (v_proj): Linear(in_features=256, out_features=256, bias=True) (q_proj): Linear(in_features=256, out_features=256, bias=True) (out_proj): Linear(in_features=256, out_features=256, bias=True) ) (activation_fn): ReLU() (self_attn_layer_norm): LayerNorm((256,), eps=1e-05, elementwise_affine=True) (encoder_attn): TrOCRAttention( (k_proj): Linear(in_features=384, out_features=256, bias=True) (v_proj): Linear(in_features=384, out_features=256, bias=True) (q_proj): Linear(in_features=256, out_features=256, bias=True) (out_proj): Linear(in_features=256, out_features=256, bias=True) ) (encoder_attn_layer_norm): LayerNorm((256,), eps=1e-05, elementwise_affine=True) (fc1): Linear(in_features=256, out_features=1024, bias=True) (fc2): Linear(in_features=1024, out_features=256, bias=True) (final_layer_norm): LayerNorm((256,), eps=1e-05, elementwise_affine=True) ) * 6 ) ) ) (output_projection): Linear(in_features=256, out_features=11318, bias=False) ) 实现细节: 数据集: Copyright © narutohyc.com 2021 all right reserved，powered by Gitbook该文件修订时间： 2024-02-20 08:28:33 new Valine({el: \"#vcomments\",appId: 'evyLlP61gQN3G3OM2GQq1rzH-gzGzoHsz',appKey: 'utUrzoiqNaDEGlgr09JL1pXB',placeholder: '欢迎留下评论交流~',avatar: 'wavatar',meta: undefined,pageSize: 15,lang: 'zh-CN',recordIP: false}) "},"chapters/huggingface基本使用
…
